Adam_0_002_ebrmnist_best.pth (torch, 540407 bytes, 30 tensors)

conv_block1.0.weight f4 [6, 2, 5, 5]
000000 4d 5f ab 3d 61 3e 07 bd 07 ac a2 bc 0c 2f 12 be
       0.083677866 -0.033018474 -0.01985742 -0.1427576
000010 17 db 55 3c 90 62 d7 3d a1 3c 92 bd 1e 6e 9e be
       0.013052723 0.10516846 -0.0714047 -0.30943388
000020 f3 f2 d3 be 24 18 cb 3e 15 79 b1 bd 93 a0 01 bf
       -0.41396293 0.39666855 -0.08665673 -0.5063564
000030 7f ce 9c be d6 a6 14 be de 6d 23 3f 3b 34 99 3d
       -0.30626294 -0.14516768 0.6383952 0.07480665
000040 15 84 8a be 6e b5 38 bd 56 ce 12 be f1 fb bd 3e
       -0.27053896 -0.0450949 -0.14336523 0.3710628
000050 65 e9 9a bd cb 3c 9a be 83 2b 09 3d 3f 4c 80 bd
       -0.07564048 -0.30124506 0.03348876 -0.06264543
000060 ae 33 97 3e 82 cb 70 3d fa 88 31 3d 93 f3 88 be
       0.29531616 0.05878783 0.04334352 -0.26748332
000070 03 4f 42 be c7 be 97 3d 0a 0a 5f be f9 9a 6a be
       -0.18975453 0.07409435 -0.21781173 -0.2291068
000080 68 5e cf 3e 7b a9 7a 3e 62 f7 aa bd 99 a3 fa 3c
       0.40501714 0.24478714 -0.08347966 0.030595588
000090 62 03 77 3e ef de 27 be 2f f0 f0 bd 25 c4 bc 3d
       0.24122384 -0.16393636 -0.117645614 0.09217099
0000a0 b8 0d a6 3e 0a c4 a7 bc 95 e1 4d be 00 f7 a2 3d
       0.32432342 -0.02047922 -0.20105584 0.07957268
0000b0 e6 f2 62 3d 8e 9f 22 bd 45 35 05 bd c0 da 84 3d
       0.055407427 -0.039702944 -0.032521505 0.06487036
0000c0 f4 d9 e1 bc b9 84 8b 3c 57 7b c1 bd 09 eb 89 3d
       -0.027569748 0.01703106 -0.09447353 0.067342825
0000d0 71 fc 42 3d 3b c1 7a bd 03 cc 22 bd 04 74 e1 bc
       0.047604028 -0.061219435 -0.039745342 -0.02752114
0000e0 31 89 0e bc a2 70 53 bd 9c 84 ff 3d 53 93 8e bd
       -0.008699701 -0.051621087 0.12476465 -0.069616936
0000f0 fb ba be 3d e7 3e 56 bd a4 03 6b bc 51 a1 b2 bc
       0.093130074 -0.052306082 -0.01434413 -0.021805437
000100 c7 7d 7c 3d 8e 89 97 3b 9e e7 bc bd de 13 32 3d
       0.061643388 0.004624552 -0.09223865 0.043475978
000110 49 ee 9b bd e1 51 bb 3d 92 d2 a3 bc bf c8 a3 3d
       -0.07613809 0.091464765 -0.019997869 0.07997274
000120 54 98 b0 3c 24 b2 2f bd bb 83 10 3c a6 87 3c 3c
       0.02155701 -0.042894498 0.0088204695 0.0115069505
000130 cc 9a 02 3f 43 89 2f 3f a3 37 28 3f 3f 2f 38 3e
       0.5101745 0.6856882 0.65709895 0.17986773
000140 4b 12 6b be d4 a6 8b be 6d 32 8b bd 62 fa b4 3e
       -0.22956197 -0.27275717 -0.06796727 0.35347277
000150 4f 80 e5 3e 6b c8 71 be 05 7a 6c bf 26 76 2f bf
       0.44824454 -0.2361161 -0.9237369 -0.68539655
000160 e9 2d ea be 56 8c d3 bd e9 f5 ce 3e 19 ee 16 bf
       -0.45738152 -0.10329501 0.4042199 -0.5895706
000170 48 2b 53 bf fd d1 f3 be 55 e9 20 be 1f 1e ab 3e
       -0.82487917 -0.47621146 -0.15714009 0.33421418
000180 ce 4d 5c 3f db 59 a6 3e b4 8c af 3e 69 0f 1a be
       0.8605622 0.3249043 0.34287035 -0.15044941
000190 06 b4 02 3e 64 6f f8 bd bf ee cb 3d 7d a0 31 3d
       0.12763986 -0.12130621 0.099576466 0.043365944
0001a0 ec ab cb 3d 01 a8 bf 3d 72 ba af 3d b0 9a 5f be
       0.09944901 0.09358216 0.085804835 -0.21836352
0001b0 bc a6 31 bd c4 5c ac bc 6a 82 c9 bd 98 c2 61 3d
       -0.0433719 -0.021040328 -0.09839328 0.05511722
0001c0 da c4 20 3b bd 26 ed 3d 6e 87 4f 3d c5 dd 34 3e
       0.0024531395 0.11579654 0.050666265 0.17662723
0001d0 dc 1a 88 be 1b 17 9b 3d a8 e2 4d be c4 85 16 3d
       -0.26582992 0.075727664 -0.20105994 0.036748663
0001e0 7a 97 64 3d 50 12 85 bd 8c 63 bf 3d 99 b8 84 bc
       0.05580852 -0.064976335 0.09345159 -0.016201304
0001f0 e2 a3 38 3d 44 b1 78 3e 92 ee ad be f2 47 7f be
       0.045078166 0.24286371 -0.33971077 -0.24929789
000200 f9 22 f2 bd 1a 50 b8 be dd e2 d3 be f9 c6 81 be
       -0.11823077 -0.35998613 -0.4138402 -0.25347117
000210 ea 94 c5 be 9e 28 e0 be bc 72 0d bf ab 4e 75 be
       -0.38590175 -0.43780988 -0.55253196 -0.2395579
000220 d4 ac a6 be a3 83 03 be 08 54 a7 be 82 af 4c 3c
       -0.32553732 -0.12843184 -0.32681298 0.012493016
000230 81 ec 79 bd 63 66 b0 be 77 c4 e6 be 50 af f9 bd
       -0.061016563 -0.34453115 -0.45071766 -0.12191641
000240 9d 05 b1 3d ab 34 8c 3e 04 cf 4f bd 1d 13 06 3e
       0.08643649 0.27383932 -0.050734535 0.13093229
000250 e3 21 b4 3e 9e ff 41 3e 6c f9 a3 bd fe fe 6e 3e
       0.35182104 0.18945166 -0.08006558 0.2333946
000260 27 f8 02 3f ae 34 ff 3e d8 03 fe 3c e8 58 88 be
       0.511599 0.4984488 0.031007692 -0.2663033
000270 ee 95 dd be eb 58 3e bf db 87 15 bf f9 36 87 be
       -0.4327845 -0.7435443 -0.58410424 -0.26409128
000280 fe 09 4c 3e ed aa 56 bf 09 80 38 bf f0 da d4 bd
       0.19925687 -0.8385456 -0.72070366 -0.103933215
000290 d9 82 09 bd ee 0f 9d 3e 8e 00 73 be da a3 7c 3e
       -0.03357205 0.30676216 -0.2373068 0.2467188
0002a0 3a 91 38 3f e8 e9 22 3e d8 09 65 3e 1f 1f 7e 3f
       0.720966 0.1590954 0.22367036 0.9926624
0002b0 cd 58 3a 3f a4 32 d0 be 5d d5 79 bc a7 4a 34 3d
       0.7279175 -0.40663636 -0.015248624 0.044016507
0002c0 65 3c 5d 3c 87 73 9f bc a4 51 96 3c f6 82 d8 bd
       0.013503169 -0.019464267 0.018349476 -0.10571854
0002d0 59 90 bb 3c d1 37 8a bd a2 da c2 b9 31 ab 81 bd
       0.022895979 -0.067489274 -0.00037165458 -0.0633148
0002e0 af bd bc 3d a8 e7 89 3d a8 9e e0 bd 59 f8 0a 3e
       0.09215867 0.06733638 -0.10967761 0.135713
0002f0 e1 c0 8b bd ae 99 1d 3d e6 1d 9a bc 56 82 b8 bc
       -0.06823898 0.03847664 -0.018813085 -0.022523087
000300 e3 e6 b5 bb c2 04 eb bc fd 51 d2 ba 9f 2a ac 3d
       -0.0055512055 -0.028688792 -0.0016046163 0.08406567
000310 4e 91 bb bd 8d 37 d0 3d 72 98 56 3b fa 41 25 3d
       -0.09158574 0.101668455 0.0032744673 0.040346123
000320 ea ec c0 3e d8 09 d3 3e 8f 63 d3 3e 14 cc b5 3e
       0.3768075 0.41218448 0.41286895 0.35507262
000330 f8 51 d2 3e 68 f6 3a bc 97 94 56 be 96 51 ad be
       0.41078162 -0.011411287 -0.2095512 -0.33851308
000340 d7 70 07 be 20 bf d4 3d 64 d6 5c be 53 9a 27 be
       -0.13226639 0.10388017 -0.21566159 -0.16367464
000350 3a a7 ad 3c 5b ce b4 be 77 69 e7 be 22 fb f6 be
       0.021197904 -0.35313687 -0.4519765 -0.48238474
000360 25 bf 02 bf b7 61 66 bf f4 5f 11 bf bb 2c fe be
       -0.51072913 -0.8999285 -0.5678704 -0.49643502
000370 4b bd 0f be c2 2d 86 be 6a 1a 5b bd 85 2d db 3c
       -0.14037053 -0.26206785 -0.053491987 0.026755104
000380 df ed 87 3e b7 80 7f bc 11 31 52 3d 73 29 b2 3d
       0.2654867 -0.015594653 0.051316325 0.08699312
000390 70 0d 97 3d 0e 40 a0 3d b0 61 88 3c 6c 68 bb 3c
       0.0737561 0.078247175 0.016648144 0.02287694
0003a0 3d d3 ab bd 63 7f c3 ba 9b 6d c1 bd aa 83 7e bd
       -0.083899 -0.0014915284 -0.09444734 -0.062137283
0003b0 a2 c4 f2 3c f6 60 dd bc 62 84 b9 3d b0 78 97 bc
       0.029634777 -0.027023774 0.09058453 -0.018490165
0003c0 d4 93 26 3e e4 5d a3 bd 0f aa 19 be 4d 8a 65 3b
       0.1626733 -0.079768926 -0.15006278 0.003502506
0003d0 0b e0 ce 3d af 4e 87 bc 50 15 f5 3c e6 a3 b6 3d
       0.101013266 -0.016517011 0.02991739 0.0891798
0003e0 94 08 1f be 9c 7e 94 3c 4b 21 78 bd 9d 4b 2d 3d
       -0.15530616 0.018126778 -0.060578626 0.04230844
0003f0 4b 06 e5 bd 87 c8 6c 3e e4 ce eb 3c 39 fa ed 3c
       -0.11182841 0.2312337 0.028785177 0.02904998

conv_block1.0.bias f4 [6]
000000 43 e6 70 bf eb 24 46 bf 14 6f ec bf 4f 43 ee be
       -0.9410135 -0.7740008 -1.8471398 -0.46535727
000010 58 1e e5 bf 93 92 89 bf
       -1.7899885 -1.0747856

conv_block2.0.weight f4 [16, 6, 5, 5]
000000 e4 77 28 bf 35 f7 09 bf 2d fb 07 be d0 0a b8 3d
       -0.6580794 -0.53892833 -0.1327941 0.08986437
000010 61 ca 1e 3e f4 16 ab be bf f7 02 bd 7a 4b 92 3e
       0.15506889 -0.3341595 -0.03197455 0.2857321
000020 e9 dd 1c 3f 7e c3 5d 3e 97 c5 14 bf 0d e6 2a 3e
       0.6127611 0.21656606 -0.58114 0.1668932
000030 c1 05 41 3f 26 fd ab 3e 63 f6 62 bd bf b5 55 3e
       0.75399405 0.33591574 -0.055410754 0.20870112
000040 75 80 e3 3d 1e 97 f1 3e c3 ef f1 3e f8 61 cb 3e
       0.111084856 0.47185606 0.47253236 0.39723182
000050 42 98 4e 3d de 2e 3f bd fd 27 2e be 78 d3 15 be
       0.050438173 -0.046675555 -0.17007442 -0.1463145
000060 39 75 02 be 4c 69 ca be 20 00 09 3e 0c 98 0b 3e
       -0.1274003 -0.3953346 0.13378954 0.1363222
000070 97 0e 2f be c9 41 9c bd 80 fc a9 3d 3c 29 4b 3e
       -0.1709541 -0.07629735 0.08300114 0.19839948
000080 13 8a 1b 3d 2c fc ce 3d 78 7d 99 3d 89 48 88 bd
       0.037973475 0.10106692 0.074946344 -0.0665446
000090 b1 00 e2 bd 46 d2 31 bd 7f fd 98 3d 75 aa ae bc
       -0.11035288 -0.043413423 0.074702255 -0.021321515
0000a0 f2 6c 53 3e f3 03 c0 bd e2 60 a3 3d 81 68 0e bd
       0.20647028 -0.09375753 0.07977463 -0.03476763
0000b0 95 e9 1a 3d 30 6f 9c 3d 4c 50 1d 3e 34 70 1e bd
       0.037820417 0.07638395 0.15362662 -0.038681224
0000c0 e7 b3 8c bd b0 90 af be ce 06 55 3d 1a 92 56 bc
       -0.06870251 -0.34290075 0.052008443 -0.013096357
0000d0 de 7a 41 3e 91 35 46 3e cd 2b da 39 53 ff 31 3d
       0.18894526 0.19356371 0.00041612834 0.043456387
0000e0 26 c6 01 be 71 18 34 3e a6 b4 7a 3c e8 97 7f 3e
       -0.12673244 0.17587449 0.015301859 0.24960291
0000f0 c6 74 c3 3e 45 41 0a 3e ad 9d d5 3d d9 95 7d bd
       0.3817503 0.13501461 0.10430465 -0.061910484
000100 1a 1d 41 3e 8d a0 e8 3c 13 f9 84 3e 0d f5 12 3e
       0.18858758 0.02839687 0.2597128 0.14351292
000110 17 de 51 bd d0 61 2d be 0e 2f a2 bd c3 d1 31 be
       -0.051237192 -0.16931844 -0.07919131 -0.17365174
000120 ea fb 95 bc c5 27 91 bd 0a b5 b5 bd 88 52 55 be
       -0.018308599 -0.070876636 -0.08872421 -0.20832264
000130 0d 7f 8f be 98 5a 23 3e f2 e3 b8 be 67 6b 31 bf
       -0.2802662 0.15952528 -0.36111408 -0.6930451
000140 07 ff 44 be 56 51 72 3d 45 96 4a bc a8 ee 13 be
       -0.1923791 0.0591596 -0.012364929 -0.14446509
000150 3c 42 87 bf 8b 35 71 bf 8e 9e 38 bf bb 85 ab be
       -1.0567088 -0.94222325 -0.72116935 -0.33500466
000160 68 83 84 bf 95 47 09 c0 64 d0 31 be 6e 06 87 bf
       -1.0352602 -2.144994 -0.17364651 -1.0548837
000170 b1 1c a2 bf e6 44 fb bf 70 fa 11 c0 4d 66 3c 3d
       -1.2665006 -1.9630401 -2.2809105 0.045996
000180 a8 be ff bd 37 28 69 be e6 d6 c0 bf 0e 41 9a bf
       -0.12487537 -0.22769247 -1.5065582 -1.2051103
000190 25 11 04 be 2c 7f 21 bf f4 13 f0 be 27 ad 11 3f
       -0.12897165 -0.63084674 -0.46890223 0.56904835
0001a0 86 df 1f bf 0e 13 82 3d 9c 73 7a 3f ad 6a a6 3f
       -0.62450445 0.06351291 0.97832656 1.3001305
0001b0 ad 73 bb be be 1c 4e bf b1 7d 3b 3f 55 58 24 3f
       -0.3661169 -0.8051261 0.73238665 0.64197284
0001c0 74 e8 8c 3e 37 9b 1e bb 73 b4 5d bf 37 6b 1a 3f
       0.27521098 -0.0024201402 -0.8660347 0.60319847
0001d0 0f 27 cf 3e fd 3c 1d 3d 4a 2c 02 3f 25 b3 74 bf
       0.40459487 0.03838824 0.5084883 -0.9558585
0001e0 f9 5b ee 3e cf 5c 9e be aa 68 a0 bc 32 55 f6 3e
       0.46554545 -0.30930182 -0.019581158 0.48111874
0001f0 cd 1f c0 bd d5 e2 c8 3e 82 ca 69 3e a5 3e b8 3e
       -0.093810655 0.3923556 0.22831157 0.35985294
000200 8a a2 12 3e 56 6d c9 3d fa 2e 6a be e8 b7 da bd
       0.14319816 0.09835307 -0.22869483 -0.106796086
000210 8a 58 82 be 3b bf 28 3e 71 9d 01 3e e5 ae 0b be
       -0.25458175 0.16479199 0.12657715 -0.13640936
000220 1b 70 b0 bd 21 ec 7d bd 39 c4 24 be e7 c3 e7 3d
       -0.086151324 -0.06199277 -0.16090478 0.11316662
000230 80 a2 fc 3d a2 27 d3 bd 51 30 ed 3d 75 18 84 3d
       0.12335682 -0.10310294 0.11581481 0.06449977
000240 5c 67 b0 3d 12 5e 54 3e 1e 13 03 3d 28 e6 38 be
       0.08613464 0.2073901 0.032000653 -0.18056548
000250 41 c1 58 3d 24 2a 17 be 68 be 0c 3f 26 25 8c 3e
       0.052918676 -0.14762169 0.54978037 0.27372092
000260 bc bb d5 be a6 3d d5 3e 49 e4 92 3e 67 60 fb 3e
       -0.41744792 0.41648597 0.28689793 0.49096987
000270 74 f0 a0 bf ff a4 0b bf 14 3a 26 3e 37 89 32 3e
       -1.257338 -0.5454864 0.16233093 0.17435156
000280 d7 05 6c be a7 66 cf bf 3a d0 fe be 2c b5 e6 3d
       -0.23049103 -1.6203202 -0.4976824 0.112650245
000290 15 58 f8 3e 73 6a 10 bf 81 b2 25 bf 4a 8d 01 bf
       0.485047 -0.5641243 -0.647255 -0.50606215
0002a0 62 8a de be d7 fa e3 3e 9b b6 79 bd be 26 07 3f
       -0.43464953 0.44527313 -0.06096516 0.5279349
0002b0 75 a0 4e be b4 30 76 bf 5a ef 8e be 6f dd 4f 3c
       -0.20178397 -0.96168065 -0.27916986 0.012687071
0002c0 96 0d dc 3d ad 60 fa 3c 8f 70 ff 3e 9d 6d 97 3e
       0.10744779 0.030563677 0.49890563 0.29575816
0002d0 dd 20 f6 3d d9 5a 71 3e d7 22 98 3e 19 b1 11 bf
       0.12017987 0.23569812 0.2971408 -0.56910855
0002e0 24 fa 3f be c5 67 e3 3e 5f 3f f6 3d 3e 00 c0 3e
       -0.18747765 0.44415107 0.12023806 0.37500185
0002f0 2a 40 ab be 58 f5 76 3d fb dc 09 3f e0 8e ec 3e
       -0.3344739 0.06029257 0.53852814 0.46202755
000300 71 ab d3 3b e2 54 41 3d 90 7d 6d bd 5e 32 b8 be
       0.0064596464 0.04720009 -0.057981074 -0.35975927
000310 a4 f8 fb 3d e0 0c 7a be 13 ad ff bd 1d 0c 94 be
       0.12303284 -0.24418974 -0.12484183 -0.28915492
000320 e9 84 5f 3e 81 91 fa 3e c6 ba be 3e 9d 32 a7 3d
       0.21828045 0.48939136 0.37251872 0.081639506
000330 13 2e d6 3e ec 55 d2 3e 61 7c 13 3f 96 88 4e 3e
       0.41832027 0.41081178 0.5761166 0.20169291
000340 3b b5 b3 3d 17 3b 31 3e de d7 70 bf 4b 8b 05 be
       0.08774801 0.17307697 -0.9407939 -0.13041417
000350 ea f5 4f be 01 df b0 3d 80 12 e7 3d 0e ab 1c 3e
       -0.20308653 0.086362846 0.112828255 0.15299627
000360 ed 2a c0 bc b3 fa 04 bf 0a f6 1d 3e f7 48 20 3c
       -0.023457969 -0.51945037 0.15425888 0.009783021
000370 94 4d 34 be 85 da 58 be 71 31 15 bf 96 f2 35 3e
       -0.17607719 -0.21177109 -0.58278567 0.1776832
000380 50 d8 bc 3d a3 a1 9a 3e 5e ae 29 3f 49 59 d9 3d
       0.09220946 0.30201444 0.6628169 0.10612733
000390 8a 88 14 3f 17 9a 23 3f 2c 59 0d 3f 2a 60 0e bf
       0.5802084 0.63907 0.5521419 -0.55615485
0003a0 08 28 86 be 00 14 f0 be b8 43 2b bc 9f 62 26 bc
       -0.26202416 -0.4689026 -0.010453157 -0.010155349
0003b0 a5 db 93 bf b3 81 34 bf 50 22 4b 3d e5 27 da 3e
       -1.1551405 -0.70510405 0.04959327 0.42608562
0003c0 9d 2b a4 be cc f1 83 bf d5 60 26 bf 15 63 60 bf
       -0.32064524 -1.0308166 -0.64991504 -0.8765119
0003d0 e2 f5 73 bf 5c 80 f3 be 14 7f d5 be 4d 72 ad bf
       -0.9529706 -0.47558868 -0.41698515 -1.3550507
0003e0 d6 29 8b bf 95 3a fc 3e 4e db b2 3e ce f1 39 bf
       -1.0872142 0.49263445 0.3493294 -0.7263459
0003f0 db 8d a1 bf b5 09 70 bf d2 dc c6 bd d6 9b 93 bf
       -1.2621416 -0.9376481 -0.09710087 -1.1531932

conv_block2.0.bias f4 [16]
000000 f5 fe 06 3f fe d3 79 3e dd 6b 0f be b1 92 3b 3e
       0.52732784 0.24397275 -0.1400599 0.18317677
000010 a1 16 4f 3d 70 68 ca be 0f 6b e3 3e 62 1e 26 be
       0.05055869 -0.39532804 0.44417617 -0.16222528
000020 1b 48 ae be 26 c9 0c bf d4 ef 9d be 74 a9 4c 3f
       -0.34039387 -0.5499443 -0.30847037 0.79946065
000030 67 89 2f be 55 95 0b 3e 4d 29 e9 3e 3f 49 cc 3e
       -0.17142259 0.13631184 0.45539322 0.39899632

fc1.weight f4 [120, 256]
000000 f2 6a 8a bd 34 95 eb bc 9d b4 23 bc f0 1a eb bb
       -0.067586794 -0.028757669 -0.009991792 -0.007174842
000010 f7 16 e8 bc 8e 86 7b 3c 95 72 a7 bb d6 be 5e 3a
       -0.028331263 0.015351905 -0.005110095 0.00084970647
000020 4e a5 65 bd e2 00 79 bd 48 2e 32 bc fe 25 7c bd
       -0.05606585 -0.060791858 -0.010875292 -0.06155967
000030 70 30 59 3c f8 d7 85 bd c2 51 3f bd b0 2c 20 bd
       0.013256177 -0.065353334 -0.04670883 -0.039105117
000040 6e 9e 4d 3d c8 62 c3 3c 80 a4 9d 3c ac b6 b7 3c
       0.05019992 0.023850814 0.019243479 0.022425972
000050 50 41 ee bc f8 9f 38 3d 54 ef 9c 3c e2 8a 67 3d
       -0.029083878 0.045074433 0.01915709 0.056528933
000060 ac 8b 5c 3d 08 53 c4 bc 58 b9 1b bc 20 70 7f 3c
       0.05384414 -0.023965374 -0.009504639 0.0155906975
000070 40 a5 ac bb b2 32 58 3d 26 f6 10 3d 00 e0 15 bb
       -0.005268723 0.05278272 0.035390995 -0.002286911
000080 c0 45 c5 bb b0 67 56 bc a0 56 c3 3b 0a 40 4f 3d
       -0.0060202777 -0.013086244 0.0059612542 0.05059818
000090 60 a8 ae 3c 80 3e 39 bd 7e 33 3d 3d 4e c2 68 bd
       0.021320522 -0.04522562 0.046191685 -0.05682593
0000a0 ca 71 7d bd bc 20 6b bd 8a fe 40 3d 4a 65 40 bd
       -0.061876096 -0.057404265 0.047117747 -0.046971597
0000b0 c0 45 96 ba b2 62 09 bd 8e 0c 34 bd 1e ea 4d 3d
       -0.0011464879 -0.03354139 -0.043957286 0.0502721
0000c0 8c b8 a7 bc 1d 77 96 bd 5b 76 86 bc f2 e7 86 bd
       -0.020473741 -0.07346938 -0.016413858 -0.06587209
0000d0 97 e2 3b bd f3 fc 20 3d d0 9c c7 3c 14 a1 53 bd
       -0.04587039 0.03930373 0.024366766 -0.051667288
0000e0 2c da 1f 3d 86 70 54 bc 27 7d c7 bc dd 7e 80 bd
       0.039026424 -0.012966281 -0.02435167 -0.06274197
0000f0 58 f2 8d bd 5b 13 53 bd f8 09 93 bd c5 18 0c 3d
       -0.06930989 -0.05153213 -0.07179636 0.03420331
000100 97 62 53 bd 69 b9 1a 3d 2c 83 6b bc be 35 c7 3c
       -0.051607694 0.037774477 -0.0143745355 0.024317618
000110 69 3b 67 bd 66 3e bb 39 2e 7e b0 bc fe ce 49 3c
       -0.056453142 0.0003571391 -0.021544542 0.012317417
000120 90 23 83 ba 86 8c 8d bd cd fa 06 3d 02 77 07 bd
       -0.0010005105 -0.06911568 0.032954026 -0.03307248
000130 f5 bd 18 3d 79 5b 17 3d ad 1c 3b bd 8d 0e 69 bd
       0.037290532 0.03695247 -0.045681644 -0.056898642
000140 6f 48 35 3d b2 ec 80 bc 95 fb 09 bb 83 10 fa 3c
       0.04425853 -0.015737865 -0.0021054496 0.030525452
000150 1e 72 74 3d 1b 7c 1c bd f3 27 5d bd 3c d0 48 ba
       0.059679143 -0.038204294 -0.053993177 -0.0007660424
000160 8c 0d 67 bd cf 64 67 bd 60 0a 0d bc 58 03 09 bd
       -0.056409404 -0.056492623 -0.008608431 -0.033450454
000170 67 b8 1c bd ca c7 78 bd 90 8e ec bb c0 9e 98 bb
       -0.038261797 -0.06073741 -0.007219143 -0.0046575963
000180 d4 dc bc 3a 55 46 86 bc 25 ce 16 bd 3c 4e 41 bd
       0.0014409074 -0.016390959 -0.03681769 -0.04719375
000190 b2 ae a5 3c cc 5d b7 bc 4e 4f 7a bd 1a 5c 00 3d
       0.020224903 -0.022383593 -0.061110787 0.031337835
0001a0 cc ac 66 3c 08 9f 12 bd be 1d 2e 3d e0 73 ad 3c
       0.014079284 -0.035796195 0.042508833 0.021173418
0001b0 8b 1f 20 bc e4 fc a7 3c c0 2b a7 ba 46 67 9f bc
       -0.009773145 0.02050633 -0.0012754127 -0.019458424
0001c0 fb 14 64 bd 78 a7 eb bb e1 53 1f bd af 1b 37 3d
       -0.05568407 -0.0071915947 -0.038898353 0.044704136
0001d0 49 ee 46 bb 53 c8 e9 3c 90 ef d0 3b d9 06 10 3d
       -0.0030354431 0.028537905 0.0063762143 0.03516278
0001e0 c9 2a 92 bd c0 55 e6 bc 62 55 7a 3d 64 de 10 3d
       -0.07137067 -0.02811706 0.061116584 0.03536834
0001f0 fd 9e 84 3c 96 fe 86 bb de a9 0e bd c8 52 51 3d
       0.016189093 -0.0041197045 -0.034829967 0.051104337
000200 89 ff 9b 3c 60 e5 a9 bc 2d 3e 61 3c e3 c7 87 3c
       0.019042747 -0.020739257 0.013747734 0.016574806
000210 e6 14 a0 bc 06 76 23 bd 91 cd 82 bc f3 e6 0e 3c
       -0.019541215 -0.039907478 -0.015967162 0.008722055
000220 70 f3 14 bc 00 c0 86 bd 08 25 38 bd bd 02 04 bc
       -0.009091243 -0.0657959 -0.04495719 -0.0080572935
000230 24 36 88 bc 75 f4 bb bc 90 19 15 3d 57 bc 13 bd
       -0.016627379 -0.022943715 0.03640133 -0.036068287
000240 05 4a 2c bd 48 fd 84 bd d9 ca 07 bd 64 ef 32 3d
       -0.042062778 -0.06493622 -0.033152435 0.043685332
000250 6d 70 46 bd 98 fa 85 bd b0 0f 4d bd 9a 6e 54 bd
       -0.04844706 -0.065419376 -0.05006379 -0.05186329
000260 2d f0 16 bd e4 fc dd bc d0 c3 8b bd 9a 47 24 bd
       -0.036850143 -0.027098127 -0.06824458 -0.040107347
000270 c7 63 d1 3b d1 d3 7b bd d9 a2 17 bd 18 e9 27 bc
       0.006390068 -0.0614813 -0.037020538 -0.010248445
000280 75 e7 3f 3c ed 88 ba bc 1a b7 25 bd e8 bb 82 bd
       0.0117128985 -0.02277037 -0.040457822 -0.063834965
000290 f7 3f 4b bc 7a 82 f5 bc 4a c0 32 bd 33 af 70 bd
       -0.012405387 -0.029969443 -0.043640412 -0.058760833
0002a0 5f 8b 2b 3d e1 c3 64 b8 8d 63 45 3d 58 02 26 3d
       0.04188096 -5.4541862e-05 0.048190642 0.04052958
0002b0 88 fd bb 3c 3b ac 76 bd 92 0f 13 bc 6d 7d 66 bc
       0.022948042 -0.060222846 -0.00897588 -0.01406799
0002c0 08 2f ce bc 8c b9 00 bd 39 9e 3c bc c6 c5 4a bd
       -0.02516891 -0.03142695 -0.011512333 -0.049505018
0002d0 7f b4 00 bb cc 4c 85 bd da 07 78 3c d1 c0 05 3d
       -0.0019638834 -0.065087885 0.015138591 0.032654587
0002e0 1e 4b 2e 3d 72 5e c7 bb 77 0d c4 bb 47 51 1c bd
       0.042552106 -0.006084257 -0.0059830504 -0.03816345
0002f0 24 67 bb bb f9 80 8f bd 50 ba 82 bd 90 31 c8 3c
       -0.0057190824 -0.070070215 -0.063831925 0.024437696
000300 b4 11 3b bc 35 3a 05 bd c9 3b 34 bb 28 24 21 3d
       -0.011417795 -0.032526214 -0.0027501455 0.039341122
000310 3d 1e 4e bc a0 8d c3 bb e9 b3 91 bd b9 19 cb bc
       -0.012580452 -0.0059678108 -0.07114393 -0.024792539
000320 9f dc 16 bd cb 4e 7d bd 68 52 91 bb dd 3f 5f bd
       -0.036831494 -0.06184272 -0.0044348724 -0.054504264
000330 69 07 f6 bb fd 52 10 bd b4 b9 9b bd 40 21 6c bd
       -0.0075082076 -0.035235394 -0.076037794 -0.057648897
000340 d8 64 a8 bb 0b 12 e5 3c 50 8a bc 3b c8 67 d3 bc
       -0.0051389746 0.027962705 0.005753793 -0.025806323
000350 f8 9f f7 3b d5 84 0a bd 6a 31 9a 3c b6 b5 92 3c
       0.0075569116 -0.033818085 0.01882239 0.017908912
000360 25 f4 6d bc b1 9f 59 3c 15 35 8c bd 94 89 85 bd
       -0.014523541 0.013282702 -0.06846062 -0.065203816
000370 44 ef a4 3c 82 fc 6b 3d 6b 40 0b bd 8c ff a5 bb
       0.020133622 0.057613857 -0.03399698 -0.005065864
000380 bb 70 2c bc 24 9e 6e bd 64 5d a2 bc af 62 99 bd
       -0.010524924 -0.058256283 -0.019819923 -0.074895255
000390 c1 bd 49 bc f4 ee 69 bd df 4f c1 bc 1e 42 ae 3c
       -0.012313307 -0.05711265 -0.023597656 0.021271762
0003a0 eb a5 9c bd 05 d5 8e 3c b6 7f 2a bd 90 fd 8b bd
       -0.07648834 0.01743556 -0.0416257 -0.068354726
0003b0 99 0f 44 bc 49 c0 89 3c 51 4e 00 3d 57 31 1c bc
       -0.011966609 0.016815322 0.03132469 -0.009533248
0003c0 a6 b3 48 bd d8 af d3 3b 2b 7f f1 3c cc d9 a6 bc
       -0.04899945 0.006460171 0.029479584 -0.020367526
0003d0 8e 9c 39 bd ca 7e 41 bd 19 27 87 bd a0 d7 95 bc
       -0.045315318 -0.047240056 -0.06599254 -0.018291295
0003e0 68 76 36 3c a4 f8 7c bb 02 fc d5 3c 28 ac 45 bd
       0.011136629 -0.003860035 0.026121143 -0.048259884
0003f0 a4 bd 51 3b a0 9b 0b bc 9f 55 90 bd f4 11 fb 3c
       0.0032003904 -0.008520991 -0.07047581 0.03064821

fc1.bias f4 [120]
000000 bc d8 8c bd ce 85 8e be bd b4 ba 3e 8d b4 ec 3d
       -0.06877276 -0.2783646 0.36466017 0.11557875
000010 fb 00 7d be 87 30 67 bc 04 cf 10 bf 24 0a 18 be
       -0.24707405 -0.014110691 -0.5656588 -0.14847618
000020 59 ca 01 be 22 f4 46 be 8b 59 c0 3d a6 cf a3 bd
       -0.12674846 -0.19429067 0.09392079 -0.0799859
000030 83 3a d7 bd 75 5b be bc 55 fa c5 bd 48 ef c3 be
       -0.10509207 -0.02323697 -0.09666888 -0.38268495
000040 09 4c 86 3c 9a 05 b4 bd b9 31 fa be 2c 21 8a bd
       0.016393678 -0.08790131 -0.4886606 -0.06744608
000050 e2 ad ff bd a3 b9 d6 3d b6 c1 c8 bd a6 fe c1 3d
       -0.124843374 0.10484626 -0.098025724 0.094723985
000060 fb e6 27 be fa a1 83 be 4a 42 34 3f be 14 94 be
       -0.16396706 -0.25709516 0.7041365 -0.28922075
000070 1a 7c 66 3e 80 96 87 bd e1 96 d0 bd 07 5d 45 bd
       0.22508278 -0.066205025 -0.10185028 -0.04818442
000080 46 fb 82 ba 41 0d 6d bd 26 6e ca 3a 74 72 30 be
       -0.0009993098 -0.057873968 0.0015444204 -0.1723116
000090 9e 23 2a 3e 31 7a 1f 3c 83 0d 90 be 51 24 93 bc
       0.1661515 0.009733723 -0.2813531 -0.017961653
0000a0 d2 11 f2 bd f5 f0 76 bd 27 3e 35 bd 15 a8 43 be
       -0.11819805 -0.06028839 -0.044248726 -0.19107087
0000b0 67 7b 85 be 09 37 ad 3c 96 3c a3 3e 47 cf a7 be
       -0.2607071 0.021144407 0.3188216 -0.32775328
0000c0 e4 08 2d bc 7c e2 10 bf 4b ca a4 bd 98 c3 5a be
       -0.010561202 -0.5659559 -0.08046397 -0.21363676
0000d0 5b b0 4f bd 6c 6e 4c be c9 8b 09 be f2 4f 95 bd
       -0.050705295 -0.19963998 -0.1343223 -0.07290639
0000e0 24 47 fc be 8f 8d f6 3d e3 05 26 bd de 49 cc 3e
       -0.49273026 0.12038719 -0.040532958 0.39900106
0000f0 9a 8d 28 be 81 74 08 bf 40 7b 9d 3c 43 62 02 bf
       -0.16460267 -0.5330277 0.01922381 -0.50931185
000100 68 34 50 bd 10 ec 87 3d a6 1f 54 be f8 9c fd 3c
       -0.05083123 0.06636822 -0.20715198 0.030958638
000110 00 5e c1 3a df e8 a2 bd 57 d0 7f 3c d0 59 c6 3d
       0.0014752746 -0.07954573 0.015613637 0.09685099
000120 c3 c6 ad be 16 c2 13 3e 68 4b aa be 02 59 f1 3c
       -0.33940706 0.14429507 -0.33260655 0.029461388
000130 03 8e b2 be 5e f9 e8 bc 8d 3d 85 3c bc 44 d9 bd
       -0.3487397 -0.02843922 0.016264701 -0.10608813
000140 e5 09 ea be 52 26 90 be f1 7c b9 3e 1f 19 e4 be
       -0.45710674 -0.28154236 0.36228135 -0.44550416
000150 f8 87 0e be 09 66 04 bf 82 c3 c1 bd 6e 91 9d bd
       -0.13919055 -0.51718193 -0.09461118 -0.07693754
000160 11 b8 34 be d3 ce 4b 3f 2e 80 3e bc 2a 24 58 3e
       -0.17648341 0.79612464 -0.01162724 0.21107545
000170 92 7d 07 3d 11 1e 1f 3d b2 47 a0 bd 3d 1f d9 be
       0.033078738 0.038847033 -0.07826175 -0.42406645
000180 ce 38 81 3e ff 51 0f bb aa 68 37 be 09 2f 0d bd
       0.2523865 -0.0021868942 -0.1791102 -0.034468684
000190 65 53 32 bd 75 8a 20 bd 5b 6e 94 bd 78 bc 15 3d
       -0.043536562 -0.039194543 -0.07247611 0.03655669
0001a0 aa f7 2d be f5 67 5d bd bb c7 3e bd db 34 e6 be
       -0.16989008 -0.05405422 -0.046577197 -0.449622
0001b0 af 5e f2 bb 32 1f c6 3c a6 37 51 bf 10 0a 4f be
       -0.007396541 0.024184797 -0.8172554 -0.20218682
0001c0 43 da ce be 9b 8b 05 be 4f 76 84 3b ea 12 03 bf
       -0.40400895 -0.13041537 0.004042424 -0.51200736
0001d0 e9 b3 89 3e 4d 17 e7 bd 57 1d ad be 33 58 ca be
       0.26895073 -0.11283741 -0.33811447 -0.39520416

fc2.weight f4 [84, 120]
000000 e0 27 4f 3c 78 b9 89 be 20 a4 eb be 2b 26 8f be
       0.012643784 -0.26899314 -0.46023655 -0.27958807
000010 a5 57 fc be 0c 3e 95 bd e8 08 ee 3d 9e 16 45 bf
       -0.49285617 -0.07287225 0.116227925 -0.76987636
000020 0b 02 72 bd c5 06 08 be a0 59 b8 be a3 0f 8b be
       -0.05908398 -0.13283832 -0.36005878 -0.27160367
000030 bb db e4 bc 6c d8 72 3c aa 43 a0 bc e5 de 84 bf
       -0.027936807 0.014822107 -0.019563515 -1.0380522
000040 5f ad e2 bd 05 0a 5a bc 87 42 27 bf 9e ff ce bc
       -0.11068224 -0.013308053 -0.6533589 -0.025268372
000050 d6 a3 9d 3e b3 3b ca 3e 7b ed 7d be 9e 1b ba bd
       0.3078906 0.39498672 -0.24797623 -0.09087299
000060 f4 fe d5 3e 3f 4c 6a be 9f 23 4b be 1e a4 40 3d
       0.41796076 -0.22880648 -0.19837807 0.047031514
000070 86 b8 46 3e cc 1e 20 bf f0 52 2c bc a0 b2 b1 3d
       0.19406328 -0.6254699 -0.010517821 0.08676648
000080 50 53 fb 3c 1e ef 07 3d e1 2b b2 3c 28 85 da bd
       0.030679375 0.033187024 0.021749439 -0.10669929
000090 62 14 2d be 76 67 b7 3d 0d c6 e8 3d 49 18 4a ba
       -0.16902307 0.089552805 0.113659 -0.0007709307
0000a0 99 51 04 3e 29 57 17 bd 6d 4d d4 bd 22 a1 22 3e
       0.12921752 -0.036948357 -0.1036633 0.1588178
0000b0 aa db c6 3d 7b 64 7b 3e 2d 96 89 bf 0c 8f a9 bf
       0.09709866 0.24550049 -1.0748955 -1.324678
0000c0 8d 8e 39 3c 69 c4 c3 bc 43 c9 31 3d 6c a7 45 3e
       0.011325491 -0.023897367 0.04340483 0.19302148
0000d0 c1 d3 c1 bc af 45 34 be 6f e2 96 3d e8 8d 9d bc
       -0.023660542 -0.17604707 0.073674075 -0.019232705
0000e0 42 12 fc bd 49 23 44 bd 78 d2 83 3d 7c ce e3 3e
       -0.1230817 -0.047885213 0.06436628 0.44493473
0000f0 a7 c7 e8 3d 7f 6f 6a be 1e c5 a8 bc ef 18 f2 bb
       0.11366206 -0.22894095 -0.020601805 -0.007388226
000100 96 f2 b5 3d f6 8b 76 be 1e ff 13 3e ed 8b d2 bd
       0.0888416 -0.24076828 0.14452788 -0.10280595
000110 fd 0e a8 be f7 18 e2 3d e5 ea ee 3e 4e 21 64 be
       -0.32823935 0.11039918 0.46663585 -0.2227833
000120 b0 bc 48 bf 9c e4 53 bf ab b5 a6 be 0b 3d b0 3e
       -0.78412914 -0.82770705 -0.32560477 0.34421572
000130 17 88 c2 be 46 1c 16 bc c0 a8 a9 bb 28 29 d3 3e
       -0.37994453 -0.009162014 -0.0051775873 0.41242337
000140 1e e9 60 bd fe 33 e6 3e 42 a4 3c be 4d 41 68 3d
       -0.054909818 0.44961542 -0.18422034 0.0567029
000150 91 f3 82 be f9 0d ef 3a f9 66 ae 3d 91 2e bf 3c
       -0.2557645 0.0018238417 0.08515734 0.023337634
000160 31 cb 2b bd 86 6f a4 be 1d a9 bb 3e b2 3f 08 3f
       -0.041941825 -0.32116336 0.3665246 0.5322219
000170 55 24 95 bc 15 d7 d5 3e 56 07 23 3d 6a 08 3f 3e
       -0.018205801 0.41765657 0.039801918 0.18655553
000180 c5 82 61 3e cc f4 8c 3c 5e a6 0e be 89 3a d1 bd
       0.22022541 0.017206572 -0.13930652 -0.10216243
000190 7a 7d 7a 3d 05 d4 eb 3c 1a c0 bb 3d 65 fc b6 3c
       0.06115482 0.028787622 0.091675 0.022337148
0001a0 c1 0c 18 3e a5 20 56 bd 13 7a 5e bd 62 3e 75 be
       0.14848615 -0.052277226 -0.054315638 -0.23949578
0001b0 68 ab 05 be 92 4d 7b be cb 1a f3 be e7 86 01 3e
       -0.13053668 -0.2454131 -0.4748138 0.12649117
0001c0 ff e9 9b bf 06 50 ef 3d 15 40 83 bf b7 1e 44 be
       -1.2180785 0.11685185 -1.0253931 -0.19152342
0001d0 bb 9c 69 3c 13 c1 cd bd 1a 14 23 3e b9 06 81 be
       0.014258559 -0.100465916 0.15925637 -0.2520044
0001e0 2d 7b 03 bb 60 23 aa be f7 61 5d bf 8d e8 e2 3e
       -0.0020062432 -0.33230114 -0.8647761 0.44318047
0001f0 0a f2 74 bd 2c c6 80 bd 30 d5 25 bc af 84 2f bf
       -0.05980114 -0.06287798 -0.010121629 -0.68561834
000200 9d 46 5c 3d 3a 42 07 be e4 99 c7 3c 8f 60 0b bf
       0.05377828 -0.13208857 0.024365373 -0.5444421
000210 89 3e 93 bd 10 f8 c1 3c 08 b9 ad 3a c4 9e cf bc
       -0.07189662 0.023677856 0.0013253996 -0.02534426
000220 4e 10 49 bf 61 69 86 bc c2 b9 72 3d 15 89 12 3d
       -0.78540504 -0.01640767 0.059259184 0.035775263
000230 ee ed 74 bd 27 48 b1 be fc ca 4d 3e a6 62 21 3e
       -0.05979722 -0.3462536 0.20096964 0.15760288
000240 1f 54 8a bf 3b d0 29 bf 67 46 d7 be c1 87 90 3e
       -1.0806922 -0.6633336 -0.420459 0.28228572
000250 2c d0 6f 3c 8c 76 11 3e 10 1d 15 3d 85 56 c9 bb
       0.014637034 0.14205378 0.03640467 -0.006144347
000260 58 f8 70 bd 8c 55 f2 bc db 0a 97 bd 8b 74 a4 3d
       -0.05883059 -0.029581808 -0.073751174 0.08030041
000270 0f fe b4 be c8 34 36 3c c7 83 16 be 5b 4e 74 3d
       -0.3535008 0.0111209825 -0.14698707 0.059645038
000280 05 aa 3c 3d 3b 95 ea 38 dc 4c ed bc 21 ab 54 bf
       0.04606058 0.00011185786 -0.028967313 -0.8307362
000290 e3 f6 18 bf 18 d2 a4 be b1 03 32 3d f3 9c 55 be
       -0.5975172 -0.3219154 0.04346055 -0.20860653
0002a0 06 03 98 3d 81 25 fd be ca aa 3a be ca 67 a3 bd
       0.07422452 -0.49442676 -0.18229213 -0.079787806
0002b0 f1 b7 1d bd 97 c3 d1 bd 2a b8 2c 3d 85 75 e8 3c
       -0.0385055 -0.10242384 0.04216782 0.02837635
0002c0 81 3f cd be 21 ba 84 3d fe 61 6a bc 83 f5 55 3e
       -0.40087512 0.06480814 -0.01430559 0.20894437
0002d0 e3 94 89 3c fc aa c4 3e 43 68 7a 3d c4 3e e6 bd
       0.016794628 0.384117 0.061134588 -0.1124244
0002e0 44 3a 27 3d ac d6 cc be 68 f0 e5 bb 95 40 90 bd
       0.04082705 -0.40007532 -0.007017184 -0.07043568
0002f0 83 3e ad 3e 5c ba 93 3d c0 9f 97 3e 6e 05 e7 3e
       0.33836755 0.072132796 0.29614067 0.4512133
000300 34 10 2d bf 9c c0 25 3d 61 66 8f 3e 56 b3 aa be
       -0.6760285 0.04046689 0.28007796 -0.33339947
000310 7d 7d f8 3b b2 4b e5 bd b5 6a e6 bc 49 92 2e 3e
       0.0075833187 -0.11196078 -0.028127054 0.17047991
000320 83 43 ab be fa fc f4 3c e8 e8 18 be bb 81 95 3c
       -0.33449945 0.029905785 -0.14932597 0.018250337
000330 d4 51 4b 3d 81 e3 eb 3e 5a 81 18 bc c3 ed 90 3c
       0.049638584 0.4607201 -0.009308184 0.017691499
000340 4f e1 60 bf f2 e4 31 bf f3 de 23 be e4 92 c0 be
       -0.87843794 -0.6948997 -0.16003017 -0.3761207
000350 21 81 8d bd 60 d2 21 3d ab 0b 78 3c a1 c6 7d bc
       -0.06909395 0.03950727 0.015139501 -0.015489251
000360 56 68 4c be b5 e5 2b bb d3 5b bd 3e 39 c4 24 bd
       -0.19961676 -0.0026229445 0.3698412 -0.040226195
000370 7a 6b cb 3c 39 6a 43 bd 11 b7 33 bb b4 56 d5 3c
       0.024831522 -0.047708724 -0.0027422349 0.02604232
000380 b9 b0 22 3d 83 4f 67 bd 25 c0 fe bc c3 60 26 bc
       0.039719317 -0.056472313 -0.031097481 -0.010154906
000390 9a de ed 3d d1 52 08 3f 4f 3e 50 bf 8e 3d 8a 3d
       0.116147235 0.5325137 -0.81345075 0.06750022
0003a0 3d 70 18 3e 0e ac 1a 3c be dc f2 bd 81 f9 8d bd
       0.14886566 0.009440435 -0.118585095 -0.06932355
0003b0 dd 2f ca 3e c4 93 52 bc 3b bf 16 be 78 73 f5 bd
       0.39489642 -0.012852613 -0.14721386 -0.119849145
0003c0 80 a4 4d 3d 59 a0 95 bd fb e3 c4 3e b8 b9 e8 bc
       0.050205708 -0.073059745 0.38455185 -0.02840887
0003d0 28 3b a4 bd 90 8c 34 bd f5 3a bf bd 15 d8 54 bd
       -0.08019096 -0.044079363 -0.09337417 -0.051963884
0003e0 1c 20 08 3e a7 5e d0 be 4c f6 d8 3e 57 71 5e 3d
       0.13293499 -0.40697214 0.4237541 0.054307308
0003f0 8d cc 15 bd 10 2d 5c bc 47 97 99 bd 00 9c 09 bf
       -0.036572028 -0.013438478 -0.07499557 -0.5375366

fc2.bias f4 [84]
000000 f8 2f c0 3e 00 d4 15 bf af 57 0d bf b5 bd 0f bf
       0.37536597 -0.5852661 -0.5521192 -0.56148845
000010 8e 4b 0d c0 0c 97 92 bf f1 e8 bb bf 7e 2d 1e bf
       -2.2077365 -1.1452346 -1.4680463 -0.61788166
000020 9c 7b cc bd 02 55 42 3f 13 1d 51 bf 0f 64 e9 bf
       -0.09984514 0.7591096 -0.8168499 -1.823366
000030 15 52 d9 3d 46 8c bd bf cf 12 bc bf 23 cd 41 be
       0.10611359 -1.4808433 -1.469324 -0.1892591
000040 df 71 d9 bd 45 3b a7 bf 26 aa 95 be f4 b9 c9 bf
       -0.10617422 -1.3064963 -0.29231375 -1.5759873
000050 e0 4d 88 3e 78 50 c4 3f 58 19 7b bf 25 c8 66 bf
       0.26621914 1.5337057 -0.98085546 -0.90149146
000060 10 7e a4 bf 43 00 75 bf 79 e0 d7 be 95 8e c3 bc
       -1.2850971 -0.95703524 -0.42163447 -0.0238717
000070 1f 0e 39 bf a2 3c 49 3f 4b ad 6f bf 64 d5 64 be
       -0.7228717 0.78608143 -0.936238 -0.22347027
000080 70 58 3a bf a4 43 e3 be 60 67 7d bf f8 f7 86 be
       -0.72791195 -0.44387543 -0.9898586 -0.2636106
000090 15 76 d7 bf f2 dd dc be 7f a2 2e be 95 57 19 be
       -1.6832911 -0.4313808 -0.17054175 -0.14974816
0000a0 e4 6d ec be 4d 88 7b bf b2 d0 66 bf 05 ab 93 bf
       -0.4617759 -0.98254853 -0.90162194 -1.1536566
0000b0 93 df e1 be d5 88 2e 3f 74 ae e1 bf fb b1 a1 be
       -0.44115886 0.6817754 -1.7631364 -0.315811
0000c0 ce aa 8a bf c3 fa b4 bf 19 38 97 bf b0 f8 c8 bf
       -1.0833375 -1.4139026 -1.1813995 -1.5700893
0000d0 ea d6 dc bf 93 a3 0e 3f ea d2 91 bf 24 c0 d7 bf
       -1.7253087 0.55718344 -1.1392491 -1.6855512
0000e0 61 c9 1b bf 47 83 1f 3f a2 ff 8b bf ca dc ae bf
       -0.60854155 0.6230969 -1.0937388 -1.366113
0000f0 b4 6e ee bf fc 69 c0 be 98 46 19 3e 2f 5e a6 bf
       -1.8627534 -0.3758086 0.14968336 -1.2997493
000100 71 ff 22 3f ef 23 0c bf 25 be 0e 3e 61 0f fb be
       0.6367102 -0.5474233 0.13939722 -0.4903517
000110 f2 5d 97 bf f8 51 97 be 5e 0e 8f bf 37 c9 d8 be
       -1.1825545 -0.29554725 -1.117626 -0.42341015
000120 a7 8a 65 bf 65 f2 83 bf 9a 37 8b be 0b e1 9e bf
       -0.8966469 -1.0308348 -0.27190858 -1.2412428
000130 e7 cf ca bf 69 d4 c7 bf 1d 1e 47 bd 7b e5 98 be
       -1.5844697 -1.5611697 -0.048612703 -0.2986258
000140 26 17 59 bf fe 00 72 3e d3 7d 4a bf 52 6f a2 bf
       -0.84800947 0.23633191 -0.7909824 -1.2690222

fc3.weight f4 [3, 84]
000000 f5 31 ae bd 55 a9 6c 3c 1c a9 1f bd f1 5a c4 3d
       -0.08505622 0.014444669 -0.038979635 0.09587658
000010 a8 25 30 bd 9d 91 13 be 87 4d 2b 3d 89 aa c6 ba
       -0.04300466 -0.14411016 0.041821983 -0.0015157025
000020 29 62 54 bc 97 0b 0e be aa 7f 00 be 89 ea 46 3c
       -0.012962856 -0.13871609 -0.125487 0.0121408785
000030 33 ba ea 3d b2 83 9d bb 07 75 9b 3c b9 e0 44 be
       0.11461296 -0.004806959 0.018976701 -0.1922635
000040 24 60 32 be c9 93 af ba c9 32 f9 bd b5 2c fa bc
       -0.17419487 -0.0013395484 -0.121678896 -0.030538896
000050 32 0d 85 bd 71 8a f4 bd a0 c6 a0 3d 04 be 9e 3d
       -0.064966574 -0.11940468 0.07850385 0.07751086
000060 18 ef c2 3c d3 94 4a bd c3 c8 3f be 4e 80 94 bd
       0.02379565 -0.049458336 -0.18728928 -0.07251035
000070 c6 6f 28 be 6f 2b a9 bd 40 bd 80 3d e2 27 83 bd
       -0.16448888 -0.082602374 0.062860966 -0.064040914
000080 48 51 3f bd 71 54 a5 3c 1d 9d 0f 3e 87 9a 22 bd
       -0.046708375 0.020181866 0.14024778 -0.03969815
000090 e9 ff 6b 3d 71 fa 3f 3d 10 f5 29 bd 75 96 08 be
       0.0576171 0.0468697 -0.041493475 -0.13338645
0000a0 e2 2b 25 3e 24 5a ee 3c 10 98 5c be ed fb 35 3d
       0.16130021 0.029095717 -0.21542382 0.04442971
0000b0 46 28 9e 3d f6 98 8b 3c e2 8b 41 bc 78 f9 48 bd
       0.07722525 0.01704071 -0.011813136 -0.049066037
0000c0 b8 00 8f 3d dc 43 fe 3d 1a 35 d7 bc a2 43 3b 3d
       0.06982559 0.12415287 -0.026270438 0.045718797
0000d0 0b 7f b7 3d 94 92 a0 bd 80 fa 15 be ac a9 89 3d
       0.089597784 -0.078404576 -0.1464634 0.067218155
0000e0 30 19 b2 bd 07 6c bd bd a3 d0 2e 3d 03 f1 7b 3d
       -0.086962104 -0.0924912 0.04267944 0.061509144
0000f0 f9 ce 05 3e 96 0f e3 bd ad 9b 2d 3e 7b 09 0c 3d
       0.13067235 -0.11086957 0.16953917 0.03418873
000100 03 64 f9 bd ea 81 20 3d f2 7c 45 bc d9 0a ad bd
       -0.12177279 0.039186396 -0.012053715 -0.08449335
000110 15 63 70 3b d1 c6 67 3c 04 6c 1f 3e 9b 1c f6 bd
       0.0036680151 0.014146523 0.15568548 -0.12017175
000120 3b 0c 59 3d 8c 44 8d bd 7f 59 f7 bd b5 89 0a 3e
       0.05299018 -0.0689784 -0.12077617 0.13529094
000130 1a 48 82 bd 88 25 e5 3d b2 0c b9 bd 75 7f c4 bd
       -0.063614085 0.11188799 -0.090356246 -0.09594623
000140 1d 19 ed 3c 46 6f 30 bd 54 6b d7 bd c6 c2 4b 3b
       0.028942639 -0.04307487 -0.10518518 0.0031091436
000150 f8 1e 6b 3d 1f 9f 87 3d 0c c8 a7 3d 50 1e 15 be
       0.05740258 0.06622147 0.08192453 -0.14562345
000160 5c 3c 64 3c 7a 33 d3 3d 73 eb db 3d 8c 0b d5 bd
       0.013930406 0.10312553 0.10738268 -0.10402593
000170 cf c3 89 bd 84 d6 c7 bd fc 18 d0 bb 0e 99 c1 3d
       -0.06726801 -0.097577125 -0.0063506346 0.09453021
000180 6c 35 4b bd 66 84 a3 bd db 5b 24 3d 5c 69 47 be
       -0.049611494 -0.079842374 0.040126663 -0.19473785
000190 a7 13 eb 3d 76 06 14 be 44 1d 7c 3b 74 e6 fe bd
       0.11478358 -0.1445559 0.0038469592 -0.12446299
0001a0 9c 30 85 bd cf 80 e5 bd 56 c1 fa bd 37 aa b2 bd
       -0.06503412 -0.11206209 -0.12243907 -0.08723872
0001b0 be 17 d6 bd 1d 39 8e 3d 73 e8 a6 bd 22 c9 13 3d
       -0.10453747 0.06944487 -0.08149805 0.036080487
0001c0 68 c2 7b 3d 2a f8 90 bb 6f 4b fc bd 1b 12 77 3c
       0.061464697 -0.0044241147 -0.12319075 0.01508
0001d0 43 86 df 3c 4e 6c 34 be 37 0a d5 3d ab 32 58 be
       0.0272857 -0.1761944 0.10402339 -0.21113078
0001e0 17 80 9d 3d f8 da a7 b7 f9 95 a2 bc 9b 97 ec 3c
       0.07690447 -2.0009917e-05 -0.019846903 0.028880885
0001f0 3f 03 3f be 09 89 54 3c 81 24 c8 bd 41 70 27 3d
       -0.18653582 0.012972125 -0.097725876 0.040878538
000200 8f 84 b0 bd 01 dd 54 be 4b ce 48 3d d0 d5 14 be
       -0.086190335 -0.20787431 0.04902486 -0.14534688
000210 d4 fc 6e 3d 0a c7 8b 3d e4 bb 6c 3d 14 8b 83 3d
       0.058346584 0.06825073 0.057796374 0.064230114
000220 ec 8f f0 3d 17 d1 a9 bd 74 80 48 bc 85 2b 54 3d
       0.11746201 -0.08291834 -0.012237657 0.051799316
000230 01 e3 f8 3d d3 ff 3e bd ca bf 85 bc 0b a8 ab 3d
       0.121526726 -0.04663069 -0.016326804 0.08381661
000240 06 eb bc 3d ed 0f 0a 3e 39 e8 93 bd 2b 51 1e bd
       0.09224515 0.13482638 -0.07222027 -0.038651627
000250 be d5 cc bd 79 4b 7b bd 04 e1 ea bd ab fc c6 b9
       -0.100017056 -0.061351273 -0.114686996 -0.00037953755
000260 b9 86 e0 3d 56 f9 a0 3d 64 0c a9 bc a9 b5 58 3d
       0.10963196 0.07860057 -0.020635791 0.05290762
000270 5f 88 dd bd 2d b0 af 3c 9c 03 79 3d 68 a9 a4 bd
       -0.10817026 0.021446312 0.060794458 -0.08040124
000280 70 8a 53 3d d3 ea 86 3d 11 b9 c5 bc b2 ef 87 3d
       0.051645696 0.06587758 -0.024136098 0.06637515
000290 83 23 e3 bd b3 22 a5 bd a3 7d 3a 3d 10 65 fd bd
       -0.11090758 -0.08063259 0.045529973 -0.12372792
0002a0 2c 15 0f 3b 3e b5 a0 bd a7 0c b2 bd b0 30 67 bd
       0.0021832688 -0.07847069 -0.086938195 -0.056442916
0002b0 f4 08 0e be 54 a9 82 be 86 81 54 bd 59 8f a6 3d
       -0.13870603 -0.25519812 -0.051881336 0.0813281
0002c0 87 fc 90 3c 97 c2 d9 3d ef e3 e9 3c 64 a4 c9 bd
       0.01769854 0.10632818 0.02855107 -0.09845808
0002d0 9b 61 29 3d 21 8d 6b bc ec ed fe bd 33 a2 0a 3e
       0.04135285 -0.0143769095 -0.12447724 0.13538437
0002e0 d3 83 a8 3d 4e bc ce bd 70 f3 8f 3d c7 c8 0d be
       0.082282685 -0.1009451 0.07028854 -0.13846122
0002f0 8b 10 c4 3d 1b 3a 47 3e 48 c7 30 be b1 4a 83 bd
       0.09573468 0.19455759 -0.1726352 -0.06410731
000300 a6 ad 00 3e 30 27 80 be 22 16 12 3d 7a a2 8e 3d
       0.12566242 -0.25029898 0.03566564 0.06964584
000310 d0 00 a5 3c a5 cd 7d 3d 23 1a 07 be c8 e3 3c 3b
       0.020141989 0.061963696 -0.13193564 0.0028822292
000320 aa d4 e9 bd 94 26 07 3d 2c f2 9d bc 92 c5 93 3d
       -0.114175156 0.032995775 -0.019280516 0.07215418
000330 28 1d c3 bd 97 f2 53 3d dd 28 8e bd ed 3a 64 bb
       -0.095270455 0.051745024 -0.06941388 -0.0034825162
000340 92 40 e3 3d d3 8a d9 bd 5a 44 1e bd f5 0c 37 be
       0.110963 -0.10622182 -0.038639404 -0.17876036
000350 0d 05 45 bc 11 5a c3 bc ff cd ee bd 97 6b 64 3d
       -0.01202513 -0.023846658 -0.116603844 0.05576667
000360 de 51 bf bd 15 16 0b bc aa 5b cb bd be 91 ce bd
       -0.09341787 -0.0084891515 -0.09929593 -0.10086392
000370 79 e2 a5 bd 99 59 d2 bc 9f 26 b0 bd e0 a4 e1 bc
       -0.08099837 -0.02567749 -0.086011164 -0.027544439
000380 6f 9e ac bb ee 1a 42 3d 17 27 1b be a2 d8 e3 bd
       -0.00526791 0.047388963 -0.1515163 -0.11125304
000390 22 b3 4d bd ca cf e2 bc 39 93 55 3d 24 1f ce bd
       -0.050219662 -0.027686972 0.052142356 -0.10064533
0003a0 3d bd 20 3e e8 30 4f bd 8d a9 80 3c 72 db a9 3d
       0.15697189 -0.05058375 0.015705848 0.08293809
0003b0 00 f3 bd 3c 52 c4 a5 bd 8c a0 98 bb 6b a7 c6 bc
       0.02318716 -0.08094086 -0.0046578106 -0.024249753
0003c0 71 1c a0 bd eb 95 8e bd 24 bd 94 bd e9 44 2a 3d
       -0.07817925 -0.06962188 -0.07262638 0.041569624
0003d0 15 9a 96 bd 7f 3b 4f bd 43 9f ab 3c 98 2f b4 bd
       -0.073536076 -0.05059385 0.020949965 -0.0879814
0003e0 77 34 bc 3c dc 80 df 3d ac b2 8b bd 5b ea 11 be
       0.022974236 0.1091325 -0.06821188 -0.14249556

fc3.bias f4 [3]
000000 63 6e 46 bf 40 99 23 be c1 0c 80 3f
       -0.77512187 -0.15976429 1.0003892

exp_avg f4 [6, 2, 5, 5]
000000 2c 9f a5 bb 9d c6 d4 bb 93 a1 93 bb 76 58 b0 bb
       -0.005054375 -0.006493403 -0.004505345 -0.005381639
000010 79 7e f8 bb 73 11 be bb e1 03 a5 bb 98 59 01 bb
       -0.007583436 -0.00580042 -0.005035863 -0.001973724
000020 34 6c 58 bb 2c 40 7a bb ce a4 aa 39 99 db aa 3a
       -0.0033023478 -0.0038185222 0.00032547716 0.0013035416
000030 6a d1 ea 3a 90 5c 57 3b 4c a1 53 3b 3e 5b 90 3a
       0.0017915193 0.0032861568 0.0032292185 0.001101352
000040 23 a4 49 3b b1 2a bb 3b 4c 4a 22 3c 6f ff be 3b
       0.0030768 0.0057118763 0.009905409 0.00582879
000050 14 0e 75 3a c3 ed af 3b 4a be 0b 3c 99 8f 23 3c
       0.0009348106 0.0053689196 0.008529255 0.009982967
000060 bf 2e 88 3b 5b 1d 22 bb da 36 d7 b9 72 06 4b bb
       0.004155963 -0.0024736736 -0.00041048863 -0.0030979184
000070 d0 38 e9 ba 02 7d 09 3b 78 6f 1d bb de 33 2b bb
       -0.0017793421 0.0020979051 -0.002402274 -0.0026123445
000080 ea 1f 9f ba 1b 36 0e b9 3f 63 94 3b 8a 67 9d bb
       -0.0012140248 -0.00013562331 0.0045284326 -0.0048036026
000090 e9 a9 0d bb 66 19 29 3b b9 35 b2 3b 79 e3 83 3b
       -0.0021616167 0.0025802492 0.005438533 0.0040249196
0000a0 f9 ed 9c bb 25 f1 01 3b 2e c5 01 3c 6f f8 bb 3b
       -0.0047891107 0.0019827571 0.007920546 0.0057364027
0000b0 02 4f 40 3b 62 a3 41 3b 61 7d c8 3b 44 be 73 3b
       0.0029343967 0.0029546847 0.006118462 0.0037192265
0000c0 cb 3d 8a ba 34 e9 34 bb 73 8c 41 3c 12 bb 4d 3c
       -0.001054698 -0.002760482 0.011813271 0.012556808
0000d0 09 8f cd 3b d8 08 48 3b a3 bc 05 bc c3 5b 61 3c
       0.0062731546 0.003052285 -0.00816265 0.013754788
0000e0 42 cd 5e 3c 54 50 f5 3b 94 66 99 3b d6 fe e2 ba
       0.013598742 0.0074863825 0.0046814177 -0.0017318379
0000f0 99 3d 8f 3b 30 32 15 3c bb bd 16 3c 7a 14 eb 3b
       0.0043713567 0.009106204 0.009200509 0.007174072
000100 bc 1a 35 3b 58 3c 1f 3b 98 d3 22 3b 7d b9 94 3b
       0.0027634343 0.0024297442 0.0024845358 0.0045387135
000110 c1 4d e8 3b 3e 4d 18 bb 51 8c 23 ba 3b 69 6e 39
       0.007089347 -0.00232394 -0.00062388653 0.0002273665
000120 01 82 d2 3b 26 42 b8 3b d2 cd c9 3a 18 57 37 3c
       0.006424189 0.00562312 0.0015396422 0.011190198
000130 ae 23 dc 3b 69 d4 04 bc 48 9f 0f bb 62 17 db b8
       0.0067181205 -0.008107283 -0.0021915007 -0.00010447089
000140 e0 8b 99 3b 3d 9a 20 3b 12 c4 78 bb 38 9c 81 3b
       0.004685864 0.0024505996 -0.0037958664 0.0039553903
000150 2c 24 b8 3b 96 b9 fa 3b 69 8f 14 3c 90 4a 02 3c
       0.0056195464 0.007651518 0.009067395 0.007952347
000160 57 b3 4d 3c b6 fc a7 3c 99 7d 0d 3c 50 ac 4a 3c
       0.012554965 0.020506244 0.008635902 0.012370184
000170 c5 f3 17 3c c8 f4 9f 3c 83 e6 a2 3c 4d 52 66 3c
       0.009274428 0.0195259 0.019885307 0.014057708
000180 c8 76 62 3c ed a1 68 3c 17 d1 7c 3c e4 90 ee 3b
       0.013822265 0.014198762 0.01543071 0.007280456
000190 ca 27 8a 3c 24 d0 2d 3c e2 33 83 ba 59 12 cc bb
       0.016864676 0.010608707 -0.0010009969 -0.006227773
0001a0 e2 d1 5a bc 2f b6 3e 3c a6 37 c3 3b 5a 9d 3e bb
       -0.013355704 0.011640116 0.0059575615 -0.0029085488
0001b0 2b 4f 3b bc 88 98 7d bc c2 54 b0 3b 5b 71 9e ba
       -0.011432449 -0.015478261 0.0053811977 -0.0012088226
0001c0 1d 92 04 bc 20 80 3f bc a5 7b 5d bc fc e1 ec bb
       -0.008091477 -0.011688262 -0.013518249 -0.007229088
0001d0 23 97 e9 bb da e7 15 bc c3 ce 3b bc 82 ac 4f bc
       -0.0071286126 -0.009149516 -0.01146287 -0.012675406
0001e0 33 29 d5 bb f4 1e 3e bb 25 14 72 bb 2e 80 b7 bb
       -0.0065051555 -0.0029010149 -0.0036938277 -0.005599997
0001f0 be bc ea bb 1a ee a1 3c 85 30 c6 3b 46 01 ce ba
       -0.007163613 0.019766856 0.0060482644 -0.0015716932
000200 8a 31 f0 bb fb ff 03 bc 04 9f 54 3b 65 29 5e ba
       -0.0073301243 -0.008056636 0.0032443414 -0.0008474796
000210 e1 36 4e bb 21 cf 81 bb c7 23 18 bb 13 0a 27 bc
       -0.0031465816 -0.0039614593 -0.0023214684 -0.010195273
000220 16 ef 92 bb bf 91 79 bb a2 1b 86 bb 36 89 ab ba
       -0.0044840677 -0.0038081256 -0.0040926496 -0.0013087157
000230 2a f7 99 bb b8 d5 96 3a e5 f5 bc b9 c2 4b 92 3b
       -0.0046986537 0.0011507785 -0.0003604136 0.0044645974
000240 a6 71 70 bb d5 a9 3d 3b 51 38 a0 3b 29 f3 9e 3b
       -0.0036688833 0.002894034 0.004889526 0.0048507643
000250 b0 c8 e7 3b b8 79 89 3b 6c a6 df 3b 7c 14 43 3b
       0.0070734844 0.004195418 0.006825259 0.0029766848
000260 ea e5 a2 3a 53 36 89 39 ab 37 b5 ba 0d 95 89 3b
       0.0012428139 0.0002617115 -0.0013825794 0.0041986764
000270 5c 23 68 3b d8 89 a8 3a a5 38 fd ba c6 ff 01 bc
       0.0035421466 0.0012858463 -0.001931925 -0.007934516
000280 0f 72 70 3b 4e ef 3a 3b a7 e0 e0 bb 94 a9 2d bc
       0.0036689078 0.0028523984 -0.006862718 -0.010599513
000290 af 70 5f bc 54 3f ac 3b 61 4a dc 39 0c 07 23 bc
       -0.013637706 0.0052565727 0.00042017087 -0.009950411
0002a0 cd a9 32 bc 06 29 2a bc a1 55 bc 39 10 5f 1e 3b
       -0.0109047415 -0.010385757 0.00035921953 0.0024165548
0002b0 37 06 9d bb 16 75 83 bb 52 9c a5 bb 89 82 8f ba
       -0.0047920006 -0.0040117605 -0.005054035 -0.0010948937
0002c0 e9 40 22 39 3c ac 5e 3b 85 14 e4 3b 36 09 21 3a
       0.00015473705 0.0033977171 0.006960454 0.0006143035
0002d0 9f 53 2a bb f2 02 54 3b 62 de ca 3b b0 29 74 3b
       -0.0025989783 0.0032350388 0.006191061 0.0037256293
0002e0 7c c3 1d ba b8 e8 de ba 7b e9 05 3c 40 5e 2f 3c
       -0.0006018204 -0.0017006611 0.008173342 0.010703623
0002f0 03 3d e2 3b fd 4e f3 3b 9d d4 98 3b 3e 39 03 3c
       0.006904246 0.0074251876 0.0046640174 0.008009253
000300 5e 22 3d 3c 59 5e 4f 3c b8 10 20 3c 04 c6 96 3b
       0.011543838 0.012656772 0.009769611 0.004601242
000310 4c e2 0a 3c 5e ea d9 3b 5a 7e ab 3b c0 ea cd 3b
       0.008476805 0.006650253 0.005233568 0.006284088
000320 92 97 a9 39 b3 8a ee 39 21 43 92 3b b2 02 aa 3b
       0.0003234712 0.00045498236 0.004463569 0.0051883096
000330 84 92 a9 3b c2 7d e8 ba 8e e0 53 3b 6f 34 6b 3a
       0.0051749367 -0.0017737674 0.003232989 0.0008972352
000340 8d 21 ba 3a ce 46 8c 3b c2 9c 08 39 f1 ca 1a 3b
       0.0014200673 0.0042809015 0.00013028368 0.0023619498
000350 57 86 4e 38 72 61 be ba 70 18 ef 3a e5 03 93 bb
       4.923934e-05 -0.001452489 0.0018241536 -0.0044865482
000360 b7 f3 00 bb 27 6b 8a bb 69 22 5b bb 58 54 4a ba
       -0.0019676515 -0.0042241993 -0.0033437258 -0.00077182567
000370 f2 ff 04 bc f2 10 80 bb e7 39 b0 bb 17 b1 5a bb
       -0.008117663 -0.00390827 -0.0053779962 -0.0033369714
000380 e3 09 b2 ba 0d 80 37 ba bb 85 d0 ba d7 4a bf 38
       -0.0013583269 -0.0006999977 -0.0015908995 9.12153e-05
000390 b5 ef 67 3b 9e 90 d9 3a 51 c5 ad bb a8 86 91 ba
       0.003539068 0.0016598885 -0.005303063 -0.0011102753
0003a0 22 2a b6 3a da 39 b5 ba d2 b7 1e bb a5 7a f9 bb
       0.0013898055 -0.0013826445 -0.0024218452 -0.0076134973
0003b0 45 f7 2e bb 9e c5 da 3a 48 e4 6b bb 1c d5 be bb
       -0.0026697677 0.0016690975 -0.003599422 -0.0058237445
0003c0 c4 88 c8 bb 00 8d ad ba 3a a5 0b 3b 9d c2 71 ba
       -0.0061198194 -0.0013240874 0.00213082 -0.000922242
0003d0 07 d8 8e bb f6 64 5d 38 b1 7c 8f 3a 80 88 33 3b
       -0.0043592486 5.2784533e-05 0.0010947195 0.0027394593
0003e0 dd c3 8a ba 32 a4 8c ba e6 14 18 bb 79 2a 83 bb
       -0.0010586936 -0.0010730086 -0.0023205816 -0.004002866
0003f0 db 56 97 bb 28 66 5d bb 5b 52 e8 3b 44 cd 9e bb
       -0.0046185083 -0.0033782814 0.0070898957 -0.004846247
